assets/cvd_logistic_model.tflite (tflite, 896 bytes, 1 tensors)

sequential_15/dense_15/MatMul f4 [1, 30]
000000 98 99 11 3e 7d a6 b3 be 64 0b 40 be 04 6a cb 3e
       0.14218748 -0.35087958 -0.18754345 0.3972932
000010 17 72 f8 be 5b 89 30 3f 69 80 30 bf e5 52 8f bf
       -0.48524544 0.6895959 -0.6894594 -1.1197172
000020 87 4d 19 be 9c 70 17 3f 83 91 2d 3f be 79 1a be
       -0.1497098 0.59156203 0.6780016 -0.15085503
000030 87 9d 1a 3e 1f 62 18 be 6d f1 84 3e e2 b9 e2 bd
       0.15099154 -0.1488118 0.25965443 -0.110706106
000040 b3 0e b7 3e cf fc b6 be 73 38 8b 3d 42 24 0d bf
       0.35753402 -0.35739753 0.06797876 -0.5513345
000050 4c 8c f7 3e 08 0a b0 3f 04 ca 0b bf 04 06 8d bf
       0.48349226 1.3753061 -0.54605126 -1.1017461
000060 e7 d5 cd be e2 b5 2c 3f 69 50 8b be b4 49 d0 3e
       -0.40202257 0.6746503 -0.27209786 0.4068123
000070 2d 14 16 3f df 87 38 bf
       0.58624536 -0.7208232
